musmtl/data/mel_standard_scaler_params.npz (npz, 2546 bytes, 2 tensors)

mean f8 [128]
000000 c5 38 17 6d fa a5 0e c0 63 3d 32 f9 fc 6c 03 40
       -3.8310440561973302 2.4282168835122078
000010 7e 61 aa 3b 58 6a 15 40 43 a2 e5 ea ec b3 15 40
       5.353852207445355 5.425708456292855
000020 a0 4f a4 4b 96 8f 14 40 de cf ef de 4a c0 0b 40
       5.140221769241094 3.468892804807168
000030 93 36 b3 73 3f 93 08 40 57 74 00 1a 2f e1 04 40
       3.071898368746426 2.609953120364064
000040 9f 76 73 1c c2 de fd 3f 9e 14 51 8a 57 e0 fa 3f
       1.8668843375557242 1.6797709849354656
000050 20 e6 76 9a 68 69 c6 3f fa 5f 32 f5 39 27 d5 bf
       0.1750918153973524 -0.3305191893100524
000060 4c 32 5b 47 00 dd f0 bf 8b 6d 92 56 96 56 fd bf
       -1.0539553439476945 -1.833639467403233
000070 d5 c0 44 e6 ad ad fb bf fa fb 1f 46 b9 23 06 c0
       -1.7299021715989984 -2.7674432257185773
000080 45 43 c1 99 83 f1 0c c0 17 9b 98 11 90 ad 0f c0
       -3.6179267894844167 -3.959747445554409
000090 b4 a9 d0 45 87 2e 12 c0 04 39 81 74 70 73 10 c0
       -4.545437899456761 -4.112733669650201
0000a0 0a 5b 66 a6 75 2a 15 c0 00 e9 b7 87 d1 ad 16 c0
       -5.291464424130718 -5.669744606590257
0000b0 56 04 d6 1e 35 12 17 c0 e0 4d 26 d6 52 8a 1a c0
       -5.767780763447339 -6.635081621253875
0000c0 c1 98 50 4a ca ae 17 c0 fb b5 08 d2 36 dc 18 c0
       -5.92069355122493 -6.215052873403233
0000d0 53 10 91 1f 2c bd 1e c0 bb 0e 5a 93 17 ee 1e c0
       -7.684738629559507 -7.732511808749844
0000e0 95 a4 2c 98 55 26 20 c0 4b b2 ee bb a6 b3 1c c0
       -8.074871783685277 -7.175440727657199
0000f0 90 4b 61 15 54 20 20 c0 d6 3e 1c f9 99 81 23 c0
       -8.063141506316043 -9.75312784642976
000100 bc b3 95 8d c0 69 22 c0 48 d6 9b cc 54 e6 21 c0
       -9.206547188305073 -8.94986571695621
000110 2f 8a c4 9c cb e3 21 c0 b9 2e 92 77 e4 cb 24 c0
       -8.944912814132378 -10.398227440447373
000120 6a d2 d5 c7 e2 1b 25 c0 28 a7 30 6f 09 51 24 c0
       -10.554464573718366 -10.158275103272516
000130 e7 b5 54 bc 19 ee 24 c0 d8 ab 46 b9 11 b4 23 c0
       -10.465040097561497 -9.851697721363891
000140 bc 5c 9e 2c fc ba 26 c0 9e 9e ac fb c6 90 27 c0
       -11.365205187159852 -11.782768120595673
000150 31 62 e4 42 74 1f 26 c0 0b 8a 19 3f 9e 2e 27 c0
       -11.061433878306248 -11.591051074855406
000160 86 d1 a8 19 7e 32 25 c0 62 71 75 b2 b0 1c 27 c0
       -10.598618318422051 -11.556035591923038
000170 97 37 34 c6 81 76 28 c0 2c 65 e0 d0 5d 66 29 c0
       -12.23145884883324 -12.699934508697503
000180 31 52 17 02 78 16 26 c0 38 cb ed a1 b2 22 28 c0
       -11.043884339663324 -12.067769108083311
000190 fd 51 e1 dc 33 87 29 c0 c3 a4 81 5e f8 e4 29 c0
       -12.76406755686275 -12.947207406354556
0001a0 11 47 45 32 ab 53 29 c0 bc 16 d7 87 f5 16 29 c0
       -12.663415499645938 -12.544842000013311
0001b0 1e c1 cf 2d c9 be 28 c0 29 28 05 2c 82 a5 28 c0
       -12.37262862359108 -12.323258758191587
0001c0 50 ae da 92 39 ae 29 c0 9b 39 75 99 af 4e 2a c0
       -12.840283002085158 -13.153683467445083
0001d0 6a ed a2 3f fa 9b 2a c0 75 bc 2f bd c6 0e 29 c0
       -13.304643620146368 -12.52886000831334
0001e0 78 28 4c da cd b4 2a c0 b5 84 df 69 13 25 2c c0
       -13.353133031651154 -14.07241373876091
0001f0 9f d8 85 06 a3 92 2d c0 21 74 f3 e0 0a f3 2a c0
       -14.786400035704274 -13.47469237300726
000200 43 f2 45 34 f2 d5 2b c0 78 4d 6a e8 c8 7d 2c c0
       -13.917863496340152 -14.245673430420297
000210 66 46 bf db e0 e0 2c c0 05 0e e3 ae 2e c0 2c c0
       -14.439215533350943 -14.375356164185186
000220 ae 71 d1 31 dd ca 2c c0 b4 c2 16 13 9e 20 2d c0
       -14.396218830887701 -14.56370601322974
000230 4f 5f 0e 32 15 dc 2b c0 17 39 a5 31 87 95 2d c0
       -13.929849209074431 -14.792047072810005
000240 87 0c 4e de b7 f5 2d c0 8b a5 4f 2e 42 0d 2f c0
       -14.97991842940088 -15.525895545217983
000250 f6 87 10 e7 b1 93 2d c0 b2 5a fb e4 4d 53 2e c0
       -14.788466664092976 -15.1627036625699
000260 83 33 45 eb b5 08 30 c0 3d 9b 8e 53 50 63 30 c0
       -16.034025864024 -16.387944433513656
000270 2d 1b 63 45 55 81 30 c0 54 96 00 32 fb 7a 30 c0
       -16.505207382865752 -16.48039543642365
000280 8b ca a6 5c eb 0c 31 c0 29 67 60 9d f9 bb 30 c0
       -17.050466337891105 -16.734277568851358
000290 61 84 6d b4 b2 29 31 c0 db d7 0a 9a b2 36 31 c0
       -17.162883068788123 -17.213662746093046
0002a0 d4 5c 4c a1 96 c6 31 c0 c8 72 59 f6 83 68 31 c0
       -17.77573593248674 -17.408263584936122
0002b0 91 49 33 66 ff 07 32 c0 8f f0 6d c6 8c 42 32 c0
       -18.031240832825976 -18.259960557785742
0002c0 ce c1 4a fd a4 df 32 c0 49 51 2d 4d 0c ce 32 c0
       -18.87361128878711 -18.804875205577705
0002d0 b4 07 d7 b7 b4 3f 33 c0 de f6 26 28 51 e5 33 c0
       -19.24885128974684 -19.895769605171942
0002e0 c5 39 12 2e e2 26 34 c0 c6 84 0d 30 c0 9a 34 c0
       -20.151888732385277 -20.604495051670504
0002f0 1c f5 a5 77 59 ed 34 c0 18 11 3f ea e4 6b 35 c0
       -20.927146413819273 -21.421461716077005
000300 85 c5 97 5f 5d 6a 35 c0 93 87 10 fa 1c fe 35 c0
       -21.415487265161136 -21.992629651103538
000310 1f e2 98 82 02 36 36 c0 0b ed 21 17 1e c9 36 c0
       -22.21097580177786 -22.785615392477705
000320 27 81 bb 71 b9 c9 36 c0 96 e8 45 49 38 35 37 c0
       -22.787985904958216 -23.20789010960342
000330 8f 8f ff ce 2c 79 37 c0 7f 03 25 0f 0c c2 37 c0
       -23.473339974777954 -23.757996508156335
000340 18 2e de 4d c6 fb 37 c0 99 e1 e7 3a b0 30 38 c0
       -23.983494631522348 -24.190189057933456
000350 4b e5 eb eb e0 a3 38 c0 b1 cd 91 3e b7 b2 38 c0
       -24.640150780765264 -24.698108587833932
000360 f9 db 1b d4 f5 26 39 c0 cf e8 c6 62 c0 3c 39 c0
       -25.152188545991496 -25.237310575067394
000370 c4 dc 38 94 53 a6 39 c0 09 c7 5b 00 19 c2 39 c0
       -25.649712814218915 -25.758193991095172
000380 78 17 1d b8 ce 2a 3a c0 90 90 ab 0c 61 65 3a c0
       -26.167216784574947 -26.39601210774032
000390 87 8e 48 95 db c1 3a c0 6d bc 09 b2 ca 03 3b c0
       -26.757256822790193 -27.014811637284243
0003a0 cc ff be ba 95 55 3b c0 db 29 fe 3c 68 b5 3b c0
       -27.33431594050471 -27.708621799518237
0003b0 0d 02 1c 25 b4 0d 3c c0 21 71 fa c9 97 73 3c c0
       -28.05353004392423 -28.45153486599259
0003c0 39 9b 6c f7 ed d3 3c c0 c3 ce 7d 71 74 4d 3d c0
       -28.827849830641956 -29.30255803414799
0003d0 95 55 d5 00 a0 be 3d c0 70 13 d5 7e 1e 6a 3e c0
       -29.744628955920764 -30.414527823467722
0003e0 90 5a 18 25 c5 73 3f c0 b3 e1 f6 3e 3a 92 41 c0
       -31.45222694248747 -35.14240252547042
0003f0 9c c9 8e c1 d1 5f 43 c0 7f 9b 91 3d 6a e0 45 c0
       -38.748588747711636 -43.753242202851645

sd f8 [128]
000000 26 61 5b 5a 61 42 2d 40 5d 5b e6 5e 85 e3 2d 40
       14.629648994116518 14.944376912708032
000010 0b 6d 8e 74 9e ee 2b 40 ae d5 a6 46 8d 23 2a 40
       13.966052667985897 13.069437225213587
000020 a9 b5 65 ee b7 31 28 40 21 2b e4 27 98 5a 27 40
       12.097106408992504 11.67694210682163
000030 1e 50 ec 8e 1f 8f 26 40 19 b3 fd f3 4f 0e 26 40
       11.279537645670697 11.02795374366683
000040 7d 97 a7 e9 67 aa 25 40 ef 8e b1 84 6c 1c 25 40
       10.832824041088083 10.55551542918644
000050 e2 40 97 5b a7 5f 25 40 5f db 7d 1a b6 8a 25 40
       10.686823713506275 10.770920589316743
000060 5c 57 0a 7f b7 b4 25 40 6e bd 19 ac 01 b4 25 40
       10.852962465298042 10.851575258390508
000070 74 cd 85 c0 ca c8 25 40 ea 01 f5 f0 3f e2 25 40
       10.892171875317878 10.941894082935466
000080 70 57 84 54 2f b2 26 40 a7 77 b4 60 6a 6f 26 40
       11.348017350344634 11.217608472852431
000090 5c dc 94 28 4f d2 26 40 4f a1 fa 53 9f c6 26 40
       11.41076018159054 11.387934326500412
0000a0 5c 53 94 c1 90 cf 26 40 ac ea f7 9e d0 67 27 40
       11.405401276928096 11.702763526690738
0000b0 f6 44 e5 d6 ae 92 27 40 5e 95 29 83 a0 82 27 40
       11.786490169035897 11.755130862070185
0000c0 88 f4 79 b8 13 c5 27 40 2a a0 f1 11 c0 2a 28 40
       11.884916081320867 12.083496628518407
0000d0 c4 99 83 29 87 ff 27 40 47 58 3b aa e3 4c 28 40
       11.999078080477268 12.150174445862048
0000e0 fe 43 91 67 e9 47 28 40 38 03 09 44 68 14 28 40
       12.140452610476128 12.039857984638374
0000f0 8c 6d 49 84 e1 2e 28 40 fd 01 2b 12 d9 74 28 40
       12.091564306224221 12.228218620061847
000100 ba 29 6f 76 ea 35 28 40 e1 17 cd 20 d0 ef 28 40
       12.10530443293543 12.468384766612816
000110 83 dc 4c 4a 01 34 28 40 74 3a c1 dd c2 52 28 40
       12.10157234371423 12.161642961347049
000120 de 51 0a 32 ad 39 28 40 c8 5f a2 d8 ed f2 28 40
       12.112649501571408 12.47447087270838
000130 3f 4b 96 18 56 c7 28 40 79 c8 c2 74 a8 5b 28 40
       12.389328735681941 12.179019593026384
000140 05 e7 9d 88 67 c0 28 40 f7 4e f2 82 72 92 28 40
       12.375789899134825 12.28602990348689
000150 ee eb 62 63 ac ad 28 40 88 56 68 b4 a4 7e 28 40
       12.339205842805281 12.247350347267698
000160 48 66 a6 fc 93 27 29 40 9b cd 8f 5d bd 65 28 40
       12.577300925552791 12.198710368923278
000170 13 80 c2 5c 22 45 29 40 cb 03 79 78 2a 79 28 40
       12.635027788870536 12.236652149936978
000180 5b 00 36 ad 8b 41 29 40 e8 3f fb 56 6a 6f 28 40
       12.628018772928206 12.217608183069345
000190 54 b6 bf c3 ca d4 28 40 ab 47 2c f9 1d c3 28 40
       12.415609471466418 12.381088053374546
0001a0 11 23 c2 44 15 22 29 40 ec 6b 9b 7b 23 0b 29 40
       12.566568516443597 12.5217550875877
0001b0 e7 d4 00 be d7 bf 28 40 09 fb 96 cf 1d 49 29 40
       12.37469285736229 12.642805564098596
0001c0 24 a1 9d 98 ac e5 28 40 87 53 11 14 5d a6 29 40
       12.448582429162862 12.824928881754898
0001d0 95 d1 bd 54 1b 01 29 40 aa 05 de e4 e1 a2 29 40
       12.502161644145227 12.818129684545813
0001e0 39 c6 d3 45 a9 e2 28 40 bf da ca 43 e6 9d 29 40
       12.4426976986898 12.808397406113157
0001f0 4b 3f 79 4a 6e 55 29 40 db 9d ae 60 6e 96 29 40
       12.66685707788533 12.793810864749437
000200 e5 7a 9e fb a7 83 29 40 aa de 8d ac bd c3 29 40
       12.757140982719145 12.882306473081673
000210 32 88 a6 57 e6 da 29 40 7e d9 41 46 16 ef 29 40
       12.927538622931113 12.966966815508155
000220 d5 0c b2 48 e1 87 2a 40 1c ff 87 a1 2c ff 29 40
       13.265390655264506 12.998387382365358
000230 39 cd f2 98 b5 4f 2a 40 44 34 1d 47 87 fc 29 40
       13.155682353628992 12.99321958762642
000240 e0 ed 35 ca ce 7d 2a 40 8f 6f 20 08 04 31 2a 40
       13.245718306620745 13.095733884772725
000250 25 d6 48 15 c9 5c 2a 40 cf c1 ca aa 41 00 2a 40
       13.181221642628836 13.000501000643366
000260 13 5c 34 35 30 5a 2a 40 a7 96 71 b3 9c fc 29 40
       13.176149046556054 12.993383033386023
000270 ae 1e 47 a9 81 f9 29 40 db de cc 1c 5d 12 2a 40
       12.987317361766454 13.035866642006502
000280 69 91 6a 66 58 3b 2a 40 43 0c ab 30 9e 5b 2a 40
       13.115908813961783 13.178941269760008
000290 c8 b1 84 46 96 58 2a 40 1c b8 07 18 c2 ac 2a 40
       13.173021510789923 13.33741831869343
0002a0 99 47 74 ff 40 88 2a 40 ee e9 e1 9d f1 86 2a 40
       13.266120894378945 13.263562139346472
0002b0 3d c5 c8 7c 86 64 2a 40 4a af c4 63 bf aa 2a 40
       13.196338557727922 13.3334914376825
0002c0 08 3b 48 2e 18 ac 2a 40 69 6c 7e 6e cb a4 2a 40
       13.336121984784327 13.321864560062936
0002d0 33 50 c5 6b 88 a0 2a 40 7e 77 00 38 6a cd 2a 40
       13.313540809475034 13.401201009804705
0002e0 d7 56 d0 1a e0 b1 2a 40 0c 69 61 4a 9f bc 2a 40
       13.34741290848926 13.368402790442381
0002f0 ed c5 f7 8a a7 e6 2a 40 89 d9 19 5e 19 e0 2a 40
       13.450497000451799 13.437693539290892
000300 fa 7b 17 e9 ef ec 2a 40 8d 0b b0 ca ef 03 2b 40
       13.462767871968015 13.50768884085644
000310 0a fe db a4 f6 22 2b 40 80 5a 4e 38 70 31 2b 40
       13.568287994246038 13.596559295239103
000320 84 c3 a1 cc 63 32 2b 40 c4 1a 1d 31 ea 35 2b 40
       13.598417658564138 13.605302367022325
000330 04 c5 a7 c2 57 4c 2b 40 c6 4f 8d ca 40 50 2b 40
       13.649107058505713 13.65674431776996
000340 56 00 9f 62 81 63 2b 40 fa 4f 3a f6 89 5d 2b 40
       13.694346506032314 13.682693190210546
000350 5a 24 28 8e 22 6e 2b 40 51 a3 65 a7 04 68 2b 40
       13.715107386016985 13.703160506398179
000360 90 8d 5b f7 ab 70 2b 40 23 c0 29 14 1c 6f 2b 40
       13.720061998296643 13.717011098953725
000370 ec 88 a5 0a 4b 76 2b 40 e4 61 3c 72 37 65 2b 40
       13.73104127188386 13.697688646193406
000380 82 15 03 e5 28 69 2b 40 61 fd 5a 47 2b 74 2b 40
       13.705390125872103 13.726892690522336
000390 76 e8 b9 39 34 72 2b 40 27 de 95 f8 1b 74 2b 40
       13.723054698890547 13.726775902075202
0003a0 3b 15 fe 65 0b 70 2b 40 34 7d c8 31 63 7e 2b 40
       13.718836962953551 13.746850543712391
0003b0 94 c3 ea 7f a7 70 2b 40 d2 73 e9 46 20 72 2b 40
       13.720027921111786 13.722902503965006
0003c0 c5 70 23 d4 cc 66 2b 40 7a 7f c5 7d 7d 5b 2b 40
       13.700781468702539 13.678691797598493
0003d0 d4 fa 52 b8 f4 40 2b 40 27 4e 26 16 94 26 2b 40
       13.626867065553064 13.57534856050104
0003e0 16 09 0f b2 fa 11 2b 40 04 13 cf ea 40 ce 2b 40
       13.53511578019656 13.902839029100058
0003f0 da f7 7e f0 24 0a 2c 40 6d b3 cc 8c d8 06 27 40
       14.019813075541538 11.513370895374203
